models/cnn_lstm_model.pt (torch_old, 600126 bytes, 30 tensors)

conv2Dblock.0.module.weight f4 [16, 1, 3, 3]
0	0xbdb798e2	-0.08964707
1	0xbda84aa9	-0.08217365
2	0xbdcf193b	-0.10112234
3	0x3de45a6a	0.111500576
4	0x3e29dcfe	0.16588208
5	0x3df13523	0.11777713
6	0x3dee48cd	0.116349794
7	0x3dfebf18	0.12438792
8	0x3e0b0c9a	0.13579026
9	0x3e842d80	0.25815964
10	0x3e646d37	0.22307287
11	0x3e7147d4	0.23562557
12	0x3dc1d0fb	0.09463688
13	0x3dd81cf4	0.10552397
14	0x3e2fb6a4	0.17159516
15	0xbe66e907	-0.2254983
16	0xbe96eeb4	-0.2947899
17	0xbe136b10	-0.1439631
18	0x3e835abe	0.25655168
19	0xbdd0ad6b	-0.10189327
20	0xbf01c61e	-0.5069293
21	0x3f12a349	0.57280403
22	0xbdff8414	-0.12476364
23	0xbef93d41	-0.48679546
24	0x3f40649c	0.7515352
25	0xbb55639b	-0.003256059
26	0xbeba4f13	-0.36388454
27	0x3ef8f729	0.48626068
28	0x3e995e86	0.29954928
29	0x3f2385ae	0.63875854
30	0xbd839ea4	-0.06426743
31	0xbe157b2a	-0.14597765
32	0xbda68264	-0.08130339
33	0xbec024d5	-0.375281
34	0xbea4100f	-0.32043502
35	0xbeb6f895	-0.35736528
36	0xbf0e78a2	-0.5565282
37	0xbf0e1814	-0.5550549
38	0xbee50b79	-0.44735315
39	0x3d050ea2	0.032484658
40	0x3cb4c36d	0.022065843
41	0x3cf477d7	0.0298423
42	0x3f01c6f5	0.5069421
43	0x3efe9de2	0.4972983
44	0x3efdb580	0.49552536
45	0xbe34c668	-0.17653811
46	0xbec17db1	-0.37791207
47	0xbe4666e6	-0.1937519
48	0xbec9be61	-0.3940306
49	0xbe9cdd99	-0.30637816
50	0xbd056241	-0.032564405
51	0x3eb8ed90	0.36118746
52	0x3ea3a487	0.31961462
53	0x3f19de8e	0.60105217
54	0x3f083e40	0.53219986
55	0x3ee34abf	0.44392964
56	0x3f47e169	0.78078324
57	0xbeba73db	-0.36416516
58	0xbe70f968	-0.23532641
59	0xbe28b14a	-0.1647388
60	0xbe48a805	-0.19595344
61	0xbec1bfe0	-0.37841702
62	0xbeb7497f	-0.3579826
63	0xbee87464	-0.454013
64	0xbec4e60f	-0.3845677
65	0xbceae38b	-0.028672954
66	0x3d567731	0.052359764
67	0xbe6db724	-0.23214394
68	0xbe8a0c3f	-0.26962468
69	0x3f62ad79	0.8854595
70	0x3f2b24e9	0.66853195
71	0xbd87a7bd	-0.066237904
72	0x3e5c9f9c	0.21545261
73	0xbbf3883d	-0.0074320124
74	0xbe21ac8a	-0.15788475
75	0xbe9dfd2e	-0.30857223
76	0xbe6f8691	-0.23391177
77	0xbe898c49	-0.26864842
78	0xbe7b1569	-0.24519886
79	0x3e92a6ef	0.28642985
80	0x3de38628	0.11109573
81	0xbdd65340	-0.104650974
82	0x3e9b54a5	0.30338016
83	0x3e79c5d1	0.24391867
84	0x3ede0a14	0.43367064
85	0x3ed5d6f1	0.4176555
86	0x3e849845	0.25897422
87	0xbee14a99	-0.44002226
88	0xbf13dbbf	-0.5775718
89	0xbf1a5e80	-0.60300446
90	0xbd389fa0	-0.045074105
91	0xbcd6a8e0	-0.026203573
92	0x3c856b8a	0.01628663
93	0x3e068951	0.1313832
94	0x3e24c50e	0.16090795
95	0x3e04f916	0.12985644
96	0x3e01c1fe	0.12671658
97	0x3d359e65	0.04434051
98	0x3dc991f0	0.098422885
99	0x3d0bfa60	0.034174323
100	0x3bd5f4cd	0.0065294267
101	0x3af62e06	0.0018782027
102	0x3e0a04d4	0.13478404
103	0x3e21184e	0.15731928
104	0x3dcacd1c	0.09902403
105	0x3dc152e6	0.0943964
106	0x3d1be754	0.03806241
107	0x3d6517d4	0.055930927
108	0xbe9ec23d	-0.31007567
109	0xba911367	-0.0011068404
110	0x3f4bed64	0.79659104
111	0xbea8c1c1	-0.32960322
112	0xbe210489	-0.15724386
113	0x3eeff412	0.46865898
114	0xbecce704	-0.4002
115	0xbdeb475c	-0.1148822
116	0x3f2444a1	0.6416722
117	0xbc78518e	-0.015156163
118	0x3e55a707	0.20864497
119	0x3e77a808	0.24185193
120	0x3d70f8d4	0.05883105
121	0x3e3e77f3	0.18600444
122	0x3e90d865	0.28290096
123	0xbe9e1d19	-0.30881575
124	0xbe53e3d9	-0.20692386
125	0xbc7808f9	-0.015138858
126	0xbe2cc7ba	-0.16873065
127	0xbe65ed04	-0.22453696
128	0xbeaba783	-0.3352624
129	0x3d9b21e7	0.07574826
130	0x3d779a34	0.060449794
131	0xbd304062	-0.04303015
132	0x3eb19eea	0.34691554
133	0x3ea1fe07	0.3163912
134	0x3e9d11ca	0.30677634
135	0x3f0e26b0	0.5552778
136	0xbf078b83	-0.52947253
137	0x3e96725c	0.29384124
138	0x3edc7504	0.43058026
139	0xbf0538ac	-0.520396
140	0x3e5af407	0.21382152
141	0x3edb4c4c	0.42831647
142	0xbf050cfc	-0.5197294
143	0x3de81206	0.11331563

conv2Dblock.0.module.bias f4 [16]
0	0xbba7e029	-0.0051231575
1	0xbcfe411e	-0.03103691
2	0x3cf480c6	0.02984656
3	0xbd0524a5	-0.03250565
4	0xbcce706f	-0.025200097
5	0x3ce7aa9d	0.028279597
6	0xbbf86dff	-0.007581472
7	0xbb0faa74	-0.0021921666
8	0x3cc10d24	0.023565836
9	0xbd34aef8	-0.044112176
10	0x3c13cf19	0.009021544
11	0xbcf26227	-0.029587818
12	0x3d127e0b	0.035764735
13	0x3d67b7cf	0.056571778
14	0xbd42955e	-0.04750573
15	0xbc25d0ca	-0.01012058

conv2Dblock.1.module.weight f4 [16]
0	0x3f0bec4a	0.54657423
1	0x3f02c24a	0.5107771
2	0x3f0919e6	0.5355514
3	0x3ee431fb	0.44569382
4	0x3ee7274f	0.45147178
5	0x3ed4b421	0.41543677
6	0x3ef5c9d5	0.48005548
7	0x3eca9587	0.39567205
8	0x3f1d8eb9	0.615459
9	0x3eb02aa8	0.34407544
10	0x3f0830f3	0.5319969
11	0x3f0dfe4a	0.5546614
12	0x3f3152c3	0.6926691
13	0x3f016639	0.50546604
14	0x3f03185c	0.51209044
15	0x3f3a25e6	0.7271408

conv2Dblock.1.module.bias f4 [16]
0	0xbea08e26	-0.3135845
1	0xbe880752	-0.26568085
2	0xbe039fda	-0.12853947
3	0xbd275c52	-0.040859528
4	0x3d192002	0.03738404
5	0x3e37ce69	0.17949833
6	0xbc24f7e0	-0.010068864
7	0x3d386544	0.04501845
8	0x3de64fb1	0.11245669
9	0xbcd672a2	-0.026177708
10	0xbea41a3c	-0.32051265
11	0xbe9dbed7	-0.30809662
12	0xbf15b748	-0.5848279
13	0xbea6e626	-0.32597464
14	0xbe9d7cf5	-0.30759397
15	0xbf57e48b	-0.84333104

conv2Dblock.1.module.running_mean f4 [16]
0	0xbc07a5f7	-0.008279315
1	0xbd0cff79	-0.034423325
2	0x3cfa1c4a	0.030531067
3	0xbd07b440	-0.033130884
4	0xbcccb073	-0.024986481
5	0x3cf244b4	0.029573776
6	0xbbf1c6fd	-0.0073784576
7	0xbb368f8c	-0.0027856557
8	0x3ce0c305	0.027436743
9	0xbd325e6a	-0.04354707
10	0x3b9d3089	0.0047970456
11	0xbd0a4666	-0.033758543
12	0x3d04e449	0.032444272
13	0x3d5a74c8	0.053334028
14	0xbd4b4b1b	-0.049632173
15	0xbc5c09b8	-0.0134300515

conv2Dblock.1.module.running_var f4 [16]
0	0x3e76a107	0.24084865
1	0x3e891774	0.26775706
2	0x3ef60058	0.48047137
3	0x3e67b71b	0.22628443
4	0x3ea409e8	0.32038808
5	0x3e61cac9	0.22050013
6	0x3e8a529d	0.27016154
7	0x3e91e5bc	0.28495586
8	0x3eb57f8a	0.35448867
9	0x3e423e14	0.18968993
10	0x3ebd7b69	0.37008217
11	0x3eb2bda0	0.34910297
12	0x3f3877f5	0.7205804
13	0x3e87acbf	0.26498982
14	0x3e5f4a67	0.21805726
15	0x3ef1b436	0.47207803

conv2Dblock.5.module.weight f4 [32, 16, 3, 3]
0	0x3dc0dbf4	0.09416953
1	0x3d5c5cf6	0.053799592
2	0x3ba737e6	0.005103099
3	0x3d465515	0.048420984
4	0x3cf26844	0.029590733
5	0x3d9a49e3	0.07533624
6	0x3e397fe2	0.1811519
7	0x3cd84460	0.026399791
8	0x3cee0cdf	0.029058872
9	0x3d4d297d	0.050088394
10	0x3ba310c5	0.0049763643
11	0xbc7eef42	-0.015559973
12	0x3d458db0	0.048230827
13	0x3da1fe2b	0.07909807
14	0x3d78567b	0.06062935
15	0x3d4008ee	0.046883516
16	0x3d08c0b3	0.033386897
17	0xbc8b5f48	-0.017013207
18	0x3d788d20	0.060681462
19	0x3da66b12	0.08125891
20	0x3d4de393	0.05026586
21	0xbcf5b152	-0.02999178
22	0x3d348395	0.0440708
23	0x3d86c618	0.06580752
24	0xbc908124	-0.017639704
25	0x3dbdb0bc	0.09262225
26	0x3cf46d9b	0.02983742
27	0xbd93fe8b	-0.072262846
28	0xbd8cb2be	-0.0687003
29	0xbd8d5248	-0.069004595
30	0x3d1cad40	0.03825116
31	0xbd420bc7	-0.047374513
32	0x3c821c8a	0.01588275
33	0xbd58fefe	-0.052977555
34	0xbcdc53ff	-0.026895521
35	0xbd93198e	-0.071826085
36	0xbcfe220e	-0.031022098
37	0xbd771a20	-0.06032765
38	0xbc51e794	-0.01281156
39	0x3d1f5f11	0.03890902
40	0x3e051c89	0.12999167
41	0x3cc123b6	0.023576599
42	0xbd0b9732	-0.034079738
43	0xbd71dfb8	-0.059051245
44	0xbd5ffba2	-0.054683335
45	0x3d0c9ce7	0.03432932
46	0x3c1dd9d0	0.00963445
47	0x3d73d355	0.059527714
48	0xbca2b40d	-0.019861246
49	0xbda5437b	-0.080695115
50	0xbcd3eb8e	-0.025869157
51	0xbd809d0b	-0.062799536
52	0xbdb51977	-0.08842748
53	0xbd654f8d	-0.05598407
54	0xbd8a1811	-0.067428716
55	0xbd99c79b	-0.07508775
56	0xbd5e7faf	-0.054320987
57	0xbaa6f6ac	-0.0012738309
58	0x3d8b600f	0.06805431
59	0x3d67cb19	0.056590173
60	0xbcfee89f	-0.031116782
61	0xbc2c2e4a	-0.010509083
62	0xbd7c80bc	-0.06164621
63	0x3d3c807f	0.04602098
64	0xbcdab5ed	-0.026698077
65	0x3e3aa574	0.18227178
66	0x3d3d70cc	0.04625015
67	0x3d299802	0.04140473
68	0xba3c9b25	-0.0007194749
69	0xbd813b37	-0.063101225
70	0x3cbe02d5	0.02319471
71	0xbcdfc677	-0.027316315
72	0xbd91e50b	-0.071237646
73	0xbdb4c3b6	-0.088263914
74	0xbd124608	-0.03571132
75	0xbce8f814	-0.028438605
76	0xbd13692b	-0.035988968
77	0xbcd6a649	-0.026202338
78	0xbd68f073	-0.056869935
79	0xbd24ddbe	-0.040250532
80	0xbcb9fb8d	-0.022702957
81	0x3bff20d5	0.0077858963
82	0xbca36665	-0.019946286
83	0x3a3a7e94	0.00071141985
84	0xbd682248	-0.05667332
85	0x3d837e31	0.064205535
86	0x3d0f6100	0.035004616
87	0xb9b09638	-0.00033681258
88	0xbdcdd94c	-0.10051212
89	0xbda1454c	-0.078745455
90	0x3dead555	0.11466471
91	0x3dfaa463	0.122383855
92	0x3d33d2ec	0.043902323
93	0x3d38b5b9	0.04509518
94	0xbc916d01	-0.017752172
95	0x3d81ecbd	0.06343982
96	0x3e0927bf	0.13394068
97	0x3d407490	0.046986163
98	0x3de33c7c	0.11095521
99	0x3d469648	0.048483163
100	0x3d4975ff	0.049184795
101	0xbc656035	-0.013999988
102	0x3e338cef	0.1753423
103	0xbc42b575	-0.011884083
104	0x3b2d4575	0.0026439105
105	0x3d781fe8	0.060577303
106	0x3de61340	0.112341404
107	0x3e1097f2	0.14120463
108	0xbc864fb7	-0.016395433
109	0xbd429f0e	-0.047514968
110	0xbe007d61	-0.12547828
111	0x3da7a10a	0.08185013
112	0xbce968fc	-0.028492443
113	0xbde16561	-0.110056646
114	0x3d8a8b29	0.06764824
115	0xbc2aa0a5	-0.010414277
116	0xbe00ef39	-0.12591256
117	0x3d69041c	0.056888685
118	0x3c350f4f	0.011051013
119	0xbdccc588	-0.099986136
120	0x3d9002ec	0.07031807
121	0xbc910569	-0.017702775
122	0x3c38d28c	0.011280667
123	0x3d66f2cb	0.05638389
124	0xbc4bb14f	-0.01243241
125	0xbd110d2d	-0.035412956
126	0x3dd53082	0.10409643
127	0x3e0e2a5f	0.13883351
128	0x3d98df65	0.07464484
129	0x3e19d9a2	0.15024427
130	0xbbcdba2e	-0.006278298
131	0x3d9fa66c	0.07795414
132	0x3d4e5ddd	0.050382484
133	0x3d5fd4ca	0.05464629
134	0xbb8caa99	-0.0042927978
135	0xbcf0a3b3	-0.029374933
136	0xbe076b15	-0.13224442
137	0xbd99378b	-0.07481297
138	0x3c7fe0b8	0.015617542
139	0xbd66edb1	-0.056379024
140	0xbba0d0c5	-0.0049077
141	0xbd9a2b1a	-0.07527752
142	0xbd87640f	-0.066108815
143	0xbd264745	-0.04059531
144	0xbd81ca9b	-0.06337472
145	0xbda1e092	-0.079041615
146	0xbdb615ab	-0.088908516
147	0xbdcd65fb	-0.10029217
148	0xbd813c41	-0.06310321
149	0xbd8b307b	-0.06796356
150	0xbdcbee57	-0.09957569
151	0x3d4fe0e8	0.050751597
152	0x3d73f8b9	0.059563372
153	0xbe059068	-0.13043368
154	0xbe04b582	-0.12959865
155	0xbdc2edc0	-0.095180035
156	0xbb468e7d	-0.0030297332
157	0xbd85f78f	-0.06541359
158	0xbdbdefca	-0.09274252
159	0xbcd9b36b	-0.026574811
160	0xbd45c31c	-0.048281774
161	0xbd89c217	-0.06726473
162	0x3cef7888	0.029232278
163	0xbd6e60ee	-0.058197908
164	0xbda59fb9	-0.08087105
165	0xbd34904a	-0.044082917
166	0xbdcdbe87	-0.10046106
167	0xbdffe4d0	-0.124948144
168	0xbe0a2c3b	-0.13493435
169	0xbd1938c5	-0.037407655
170	0xbdeaf16c	-0.11471829
171	0xbcf78c53	-0.030218279
172	0xbcff7b90	-0.031186849
173	0x3c0eadaf	0.008708402
174	0x3c7df0f3	0.015499341
175	0x3c85e206	0.016343128
176	0xbd891ea1	-0.06695295
177	0x3dc93a9a	0.098256305
178	0xbd05f710	-0.03270632
179	0xbdb61315	-0.08890358
180	0x3ca7d6ed	0.020488227
181	0x3d23c6a6	0.039984368
182	0x3b78a3b7	0.0037939379
183	0xbe03beff	-0.12865828
184	0xbc588cbb	-0.0132171465
185	0xbd781275	-0.060564477
186	0x3d8698bb	0.065721
187	0x3b97a525	0.004627841
188	0x3e2e7331	0.1703613
189	0x3c6f6bde	0.01461312
190	0x3e0ed26f	0.13947462
191	0x3ca05c12	0.019575153
192	0xbc74ac35	-0.0149336355
193	0x3baf18df	0.005343541
194	0x3b8e0472	0.004334026
195	0x3e31891a	0.17337456
196	0x3da5281d	0.080642916
197	0x3ce9ce46	0.028540742
198	0x3c6523af	0.013985558
199	0xbd5d7b82	-0.054072864
200	0xbbaa68d7	-0.005200486
201	0x3d4144b6	0.04718467
202	0xbd008c9b	-0.03138409
203	0xbca7f196	-0.02050094
204	0x3dc05b8c	0.09392461
205	0xb9c25e5e	-0.00037072873
206	0xbd69d857	-0.057091083
207	0x3da7d6a3	0.081952356
208	0x3ce4d1e1	0.02793211
209	0x3baf8f5b	0.0053576655
210	0xbdb1fc12	-0.08690657
211	0xbdcca742	-0.099928394
212	0xbcbe3020	-0.023216307
213	0x3d5432cf	0.051806267
214	0x3e0dd4d6	0.13850722
215	0x3b300c5c	0.0026862836
216	0x3dbe2112	0.092836514
217	0x3d4b6eb5	0.049666125
218	0x3cf5a0d5	0.029983917
219	0x3ccee4a0	0.025255501
220	0x3cf22cea	0.029562432
221	0xbb0d876a	-0.0021595606
222	0x3e809c76	0.2511937
223	0xbd8fd76d	-0.07023511
224	0xbd72c2f8	-0.059267968
225	0xbd47df9b	-0.04879723
226	0xbd194704	-0.03742124
227	0xbcf72f47	-0.03017391
228	0x3de5c77a	0.11219688
229	0xbd122514	-0.03567989
230	0x3d95f56b	0.073222004
231	0x3d80bc81	0.06285954
232	0x3d24cd79	0.040235016
233	0xbc6a84bc	-0.014313873
234	0xbd3e75b7	-0.04649898
235	0xbd4d8af5	-0.050181348
236	0xbdb2255e	-0.086985335
237	0xbdacc176	-0.08435337
238	0xbd3e5344	-0.046466127
239	0xbd2429e8	-0.040079027
240	0xbd6fe46b	-0.058567446
241	0xbba731b1	-0.005102359
242	0x3db07cf5	0.08617584
243	0xbd989ae1	-0.07451416
244	0xbdc41190	-0.09573662
245	0xbdae9e64	-0.08526304
246	0xbd8b6129	-0.06805641
247	0xbd4f260d	-0.050573397
248	0xbd6309e5	-0.055429358
249	0xbdc24991	-0.09486688
250	0xbd12e40b	-0.03586201
251	0x3d70c797	0.058784094
252	0xbe104337	-0.1408814
253	0xbd4ed2ce	-0.050494008
254	0xbd165e88	-0.036711246
255	0xbdec5ef7	-0.115415506

conv2Dblock.5.module.bias f4 [32]
0	0xbc6b80e0	-0.014373988
1	0xbc5156d8	-0.012777053
2	0x3c086e2c	0.008327048
3	0xbb345d1a	-0.0027521313
4	0x3bc9747e	0.00614792
5	0xbc688dc7	-0.014193959
6	0x3c0fb3e0	0.008770913
7	0x3c5ceed0	0.013484672
8	0x3bb97ad7	0.0056603956
9	0x3820e43f	3.8359543e-05
10	0x3b783118	0.003787106
11	0xbc37b72e	-0.011213107
12	0x3c50ce52	0.012744503
13	0xbbf385cf	-0.0074317227
14	0xbc3b5f85	-0.011436348
15	0xbafaed72	-0.001914425
16	0xbad08e8b	-0.0015911622
17	0x3c61064d	0.013734412
18	0x3c178ab7	0.009249381
19	0xbb99263c	-0.0046737473
20	0x3c6d475e	0.014482347
21	0xbae6ff25	-0.0017623646
22	0x39608649	0.0002141233
23	0x3b6f8458	0.003654739
24	0xbb044804	-0.0020184526
25	0x3b7d1bbc	0.0038621267
26	0xbc3beb06	-0.011469608
27	0xbb811919	-0.0039397595
28	0xbc6c8174	-0.014435161
29	0xbbcf18b4	-0.0063200835
30	0x3c47765b	0.012174214
31	0x3c07e3c5	0.008294051

conv2Dblock.6.module.weight f4 [32]
0	0x3eb1fbb0	0.34762335
1	0x3efa52a4	0.48891175
2	0x3ec619f4	0.38691676
3	0x3edc2d00	0.43003082
4	0x3f0dd315	0.5540021
5	0x3f2b05c3	0.66805667
6	0x3f04edbd	0.5192526
7	0x3ef3aa8b	0.4759105
8	0x3f152cb1	0.5827132
9	0x3ec9a29c	0.39381874
10	0x3ed98716	0.42485875
11	0x3f017c09	0.5057989
12	0x3efc52dd	0.4928197
13	0x3ea6b474	0.3255955
14	0x3eb7eb4d	0.35921708
15	0x3f091d44	0.5356028
16	0x3f0973f3	0.5369255
17	0x3f1096ce	0.5648011
18	0x3ee3628e	0.4441113
19	0x3f151803	0.58239764
20	0x3f205d14	0.62642026
21	0x3ec7db8f	0.39034697
22	0x3ef43a9f	0.47700974
23	0x3ea554bc	0.3229121
24	0x3ecd1faa	0.4006322
25	0x3ed9ce79	0.4254034
26	0x3f11e7e6	0.56994474
27	0x3eddeb3a	0.43343526
28	0x3f1706af	0.58994573
29	0x3f0d4a48	0.5519147
30	0x3f076bed	0.52899057
31	0x3ea55d84	0.3229791

conv2Dblock.6.module.bias f4 [32]
0	0xbe9711b9	-0.2950571
1	0xbe6189a0	-0.22025156
2	0xbee784d9	-0.45218542
3	0xbebbd59a	-0.36686403
4	0xbea62e6d	-0.32457295
5	0xbf397bae	-0.72454345
6	0xbef9662d	-0.48710766
7	0xbea6f344	-0.32607472
8	0xbf0709c5	-0.5274928
9	0xbee067eb	-0.43829283
10	0xbf18d99f	-0.59707063
11	0xbef80132	-0.48438412
12	0xbefb03ea	-0.49026424
13	0xbedbbbf7	-0.42916843
14	0xbebd4b03	-0.36971292
15	0xbeb9d9fc	-0.3629912
16	0xbf2362ac	-0.63822436
17	0xbf112249	-0.5669294
18	0xbe4b5f11	-0.19860484
19	0xbf4289c7	-0.7599148
20	0xbf1d58a3	-0.61463374
21	0xbe992618	-0.29911876
22	0xbef71bac	-0.482633
23	0xbea165d8	-0.31523013
24	0xbedf5734	-0.43621218
25	0xbeff0e94	-0.4981581
26	0xbf04684c	-0.51721644
27	0xbef80cfa	-0.484474
28	0xbf18eb91	-0.59734446
29	0xbf19f5fd	-0.60140973
30	0xbf1e7e22	-0.61911213
31	0xbebfc16a	-0.3745225

conv2Dblock.6.module.running_mean f4 [32]
0	0xbd1c6649	-0.038183484
1	0xbe9e970b	-0.30974612
2	0xbf7ba403	-0.9829714
3	0xbf0e3d99	-0.5556274
4	0xbf0d3964	-0.55165696
5	0xbff585ee	-1.9181497
6	0xbf134b79	-0.5753704
7	0xbef275df	-0.47355554
8	0xbfce950a	-1.6139233
9	0xbf1e120a	-0.61746275
10	0x3fae599e	1.3621099
11	0xbf68db50	-0.90959644
12	0xbf813bee	-1.0096414
13	0xbe9fd5d6	-0.3121783
14	0xbf0c670c	-0.5484474
15	0xbef20d37	-0.47275707
16	0xbf8b3eda	-1.0878556
17	0xbf8345bb	-1.0255655
18	0x3dde98a2	0.10868956
19	0xbf9dde3b	-1.2333444
20	0xbfa61d34	-1.2977662
21	0xbf742dc2	-0.9538232
22	0xbf4371ba	-0.7634541
23	0xbe4e3d19	-0.20140494
24	0xbf125012	-0.5715343
25	0xbf2cd702	-0.67515576
26	0xbf9087f8	-1.1291494
27	0xbf9acac7	-1.2093133
28	0xbfd74716	-1.6818569
29	0xbf7e5356	-0.9934591
30	0xbf99054a	-1.1954739
31	0xbd97f177	-0.07419103

conv2Dblock.6.module.running_var f4 [32]
0	0x3f04afb5	0.5183061
1	0x3f52a49b	0.8228242
2	0x3f08a289	0.5337301
3	0x3f04f129	0.5193048
4	0x3f47038b	0.7773978
5	0x3f77e049	0.96826607
6	0x3f4ce1ec	0.8003223
7	0x3f58d6ca	0.8470274
8	0x3f70077b	0.93761414
9	0x3f317e71	0.6933356
10	0x3f153e12	0.58297837
11	0x3f3ac242	0.72952664
12	0x3f2de9df	0.67934984
13	0x3ec31e76	0.38109177
14	0x3f2599ff	0.64688104
15	0x3f83bff8	1.0292959
16	0x3f62e402	0.8862916
17	0x3f72998d	0.9476555
18	0x3f174a7a	0.5909802
19	0x3f2bd7b2	0.67126
20	0x3f764911	0.9620524
21	0x3f0a3a0d	0.5399483
22	0x3f2fa129	0.68605286
23	0x3eea7ed7	0.45799896
24	0x3f0d96af	0.5530805
25	0x3f2f1c59	0.6840263
26	0x3f7a0706	0.97666967
27	0x3f0e16f9	0.55503803
28	0x3f8045c7	1.0021294
29	0x3f55db3a	0.8353764
30	0x3f3e932d	0.7444332
31	0x3f062c8c	0.52411723

conv2Dblock.10.module.weight f4 [64, 32, 3, 3]
0	0xbdb0d5de	-0.08634542
1	0x38bd54ac	9.027994e-05
2	0xbdb09b05	-0.08623318
3	0xbdb10bd4	-0.08644834
4	0xbd6ce535	-0.057835776
5	0xbd32bcc1	-0.04363704
6	0x3d948460	0.07251811
7	0x3a01b4d1	0.0004947903
8	0xbd38539c	-0.04500161
9	0x3da2955a	0.07938643
10	0xbcb3e717	-0.021960778
11	0xbc6dc1f4	-0.014511574
12	0xbc4408cd	-0.011964989
13	0x3c215c9c	0.00984874
14	0xbc18d76b	-0.009328703
15	0xbd887822	-0.066635385
16	0xbc46e3da	-0.012139285
17	0x393800ca	0.00017547901
18	0xbe0b00f6	-0.13574585
19	0x3c99eee5	0.018790672
20	0xbd0ac713	-0.03388126
21	0xbcff7319	-0.031182813
22	0x3bcb2210	0.006199129
23	0xbd878827	-0.06617766
24	0x3c27f0af	0.0102502545
25	0xbc45c798	-0.012071513
26	0xbd1d8393	-0.038455557
27	0xbcc589b0	-0.024113506
28	0x3d566d68	0.05235043
29	0xbcae1a01	-0.021252634
30	0xbd8f239e	-0.06989215
31	0xbd53c02b	-0.051696938
32	0xbdba7c1a	-0.09105702
33	0xbcb32ef9	-0.021872984
34	0xbd766bf3	-0.060161542
35	0xbd8f61b6	-0.07001059
36	0xbc9042d1	-0.017609986
37	0xbc6cc8a6	-0.014452135
38	0xbd0dc70e	-0.03461366
39	0xbc0b00e6	-0.008484101
40	0x3d564f5f	0.052321788
41	0x3a14f66f	0.00056824734
42	0xbc773f71	-0.015090809
43	0x3d5768a1	0.052590016
44	0x3d46228c	0.04837279
45	0xbdca90b7	-0.098908834
46	0x3c22e3f0	0.00994204
47	0xbcefd325	-0.029275486
48	0xbd874cb9	-0.066064306
49	0xbc7904e3	-0.015198919
50	0xbd0b7a2f	-0.03405207
51	0xbc8f7fda	-0.017517019
52	0x3b356002	0.0027675633
53	0xbc8744c3	-0.01651228
54	0x3d8dbc37	0.06920665
55	0x3e0f5624	0.13997704
56	0x3e1b9cb4	0.15196496
57	0x3c78e471	0.015191183
58	0xbd490fde	-0.049087398
59	0xbcbf004e	-0.023315575
60	0xbd290b00	-0.041270256
61	0xbba393fa	-0.0049920054
62	0x3c8b1a8a	0.016980428
63	0x3da61c94	0.081109196
64	0x3db6f719	0.08933849
65	0x3dce3b50	0.10069907
66	0xbd2bdf17	-0.041960802
67	0xbc5f730c	-0.013638269
68	0xbd262173	-0.040559243
69	0x3c4c24aa	0.012459913
70	0x3decec65	0.11568526
71	0x3bfc14ea	0.007692923
72	0xbd616bab	-0.05503432
73	0xbc5c0be8	-0.013430573
74	0xbd8d79c2	-0.06907989
75	0xbd98a137	-0.07452624
76	0xbc2d7106	-0.010586029
77	0xbd5dd113	-0.054154467
78	0x3b7eb931	0.0038867707
79	0x3cb99a1a	0.02265649
80	0xbcf7b6cb	-0.03023853
81	0xbd3827c9	-0.044959817
82	0x3e2c1151	0.1680348
83	0x3ce6b780	0.028163671
84	0xbd56c457	-0.052433338
85	0x3d855179	0.0650968
86	0x3d131838	0.03591177
87	0xbda80c6a	-0.08205493
88	0xbb782f69	-0.0037870056
89	0xbc477c49	-0.012175628
90	0xbcc756e6	-0.024333429
91	0x3be8d254	0.007105151
92	0xbbf27f4e	-0.00740043
93	0xbb34e11b	-0.0027599994
94	0x3cac6c46	0.021047723
95	0xbd43a58a	-0.047765292
96	0x3c464ed0	0.012103751
97	0x3b9d360d	0.004797703
98	0xbd77175f	-0.060325023
99	0xbe0443f1	-0.12916543
100	0xbcbca666	-0.023028564
101	0xbd9ca102	-0.07647897
102	0xbda7bf19	-0.08190746
103	0x3cef477a	0.029208887
104	0x3b4aca2c	0.0030943258
105	0x3ddad60e	0.10685359
106	0xbcc4de51	-0.02403179
107	0xbc9661b6	-0.01835714
108	0xbd19a10a	-0.037507094
109	0x3def49f4	0.11684027
110	0x3cdee0d1	0.02720681
111	0xbdaefa25	-0.08543805
112	0xbd08370f	-0.033255633
113	0xbdbfe041	-0.09368945
114	0xbdd21d39	-0.1025948
115	0xbd68efa8	-0.05686918
116	0xbd3a958b	-0.04555277
117	0xbe0ef56d	-0.1396081
118	0xbdabb566	-0.083842084
119	0x3c6dabdd	0.014506307
120	0xbd1f61ff	-0.038911816
121	0xbd095654	-0.033529595
122	0xbd9036c7	-0.07041698
123	0x3ddb136a	0.10697062
124	0xbc147fe8	-0.009063698
125	0xbda4f9a4	-0.08055428
126	0xbdd78f32	-0.10525359
127	0x3ca871d4	0.02056209
128	0xbdb4faed	-0.08836923
129	0xbdbe7626	-0.09299879
130	0xbd9e5ece	-0.07732926
131	0xbd9eca0a	-0.0775338
132	0x3cb0c910	0.02158025
133	0xbdb1d4d7	-0.08683174
134	0xbe0d4e85	-0.13799484
135	0x3cc4e4bd	0.024034852
136	0xbd61382e	-0.054985218
137	0x3b965541	0.0045878
138	0xbc018db8	-0.007907324
139	0xbbd7c824	-0.006585138
140	0x365bc451	3.2747814e-06
141	0xbc84f07d	-0.016227955
142	0xbbee3778	-0.007269796
143	0xbca9ced4	-0.020728506
144	0xbd910cd0	-0.07082522
145	0x3cfdf3ec	0.0310001
146	0xbc3c4c48	-0.011492796
147	0xbd8c6b7a	-0.06856437
148	0x3d8ee394	0.06977001
149	0x3c79d71d	0.015249041
150	0xbd4fc40e	-0.05072408
151	0x3d197608	0.03746608
152	0xbda2a362	-0.07941319
153	0xbdf4326a	-0.11923678
154	0x3dded2dd	0.10880063
155	0x3b82a829	0.0039873314
156	0xbdbbe727	-0.09174948
157	0xbd378e51	-0.044813458
158	0x3d735cff	0.05941486
159	0x3a4b300f	0.0007750997
160	0xbda0526e	-0.07828222
161	0xbd3e2892	-0.04642541
162	0x3d7c4874	0.061592534
163	0x3b80b2c6	0.0039275615
164	0x3d6ed19c	0.058305368
165	0xbc9eecbc	-0.019399993
166	0x3ca3ab76	0.01997922
167	0xbd5caa7c	-0.053873524
168	0xbda6ad4f	-0.08138525
169	0x3c1f9ffb	0.009742732
170	0xbd04425f	-0.03228986
171	0x3e0c98be	0.13730142
172	0x3d7e9812	0.062156744
173	0x3de14806	0.110000655
174	0x3a87d34b	0.0010362653
175	0x3db0e767	0.086378865
176	0xbcbcd5a7	-0.023051096
177	0xbe08789b	-0.13327257
178	0xbcf59d05	-0.0299821
179	0xbd2a4243	-0.0415671
180	0xbd87f468	-0.06638414
181	0x3d567e54	0.05236657
182	0xbd9a06dc	-0.075208396
183	0xbc5d0c63	-0.013491723
184	0xbcffed12	-0.031240974
185	0xbd5e6771	-0.05429787
186	0x3d695d67	0.05697384
187	0xbb986cae	-0.0046516275
188	0xbd960c7f	-0.07326602
189	0xbd9a00a0	-0.075196505
190	0xbdb833c4	-0.089942485
191	0xbd480b77	-0.04883906
192	0x3d6dc300	0.058047295
193	0x3d477be2	0.04870213
194	0x3cec9dab	0.028883776
195	0x3d3de423	0.046360146
196	0xbb9ccbef	-0.004785053
197	0xb99b26db	-0.00029592853
198	0x3dbf1703	0.09330561
199	0x3e31f973	0.17380314
200	0x3de93866	0.1138771
201	0xbcfba8ec	-0.030720197
202	0x3d73be84	0.05950786
203	0x3d84ec14	0.06490341
204	0xbe0b1213	-0.13581114
205	0xbd688f27	-0.056777146
206	0xbd5b8071	-0.05358929
207	0x3d0dcba5	0.03461804
208	0x3df3747d	0.11887453
209	0xbd4a868d	-0.049444724
210	0xbdafd13a	-0.08584829
211	0x3bc6f008	0.0060710944
212	0xbd95e06f	-0.07318198
213	0xbdbb63d9	-0.09149904
214	0xbdf5a6d9	-0.11994714
215	0xbdae744f	-0.08518278
216	0x3daf2cea	0.085534886
217	0x3dc2a82d	0.09504733
218	0xbd698429	-0.057010803
219	0xbd4e2481	-0.05032778
220	0xbcba7537	-0.02276097
221	0xbdca0074	-0.09863368
222	0xbd657160	-0.056016326
223	0xbd70927f	-0.05873346
224	0xbd9d31b7	-0.07675498
225	0xbd95b289	-0.073094435
226	0xbd7bcfea	-0.06147758
227	0xbda53a2d	-0.08067737
228	0xbd128e78	-0.0357804
229	0x3d470b26	0.048594616
230	0xbd88eec8	-0.06686169
231	0x3dd85649	0.105633326
232	0xbd82ec63	-0.063927434
233	0xbdc8a3cf	-0.09796869
234	0xbc062fc2	-0.008190097
235	0x3d03fabc	0.03222154
236	0x3e24ba0c	0.16086596
237	0xbd1ffee9	-0.03906146
238	0x3db5081f	0.088394396
239	0xbdca7065	-0.09884719
240	0xbe056242	-0.13025764
241	0xbd851c13	-0.06499495
242	0xbcb7ea1c	-0.0224505
243	0xbdd857ea	-0.10563643
244	0xbde9ad07	-0.114099555
245	0xbd9dc838	-0.07704204
246	0xbd96ee1e	-0.07369636
247	0xbdaff9f4	-0.08592597
248	0xbc2c9457	-0.010533414
249	0x3da40f5b	0.08010741
250	0xbcd89167	-0.02643652
251	0x39cf4b5d	0.00039538267
252	0xbdc46ae3	-0.095906995
253	0x3d2a52b3	0.041582774
254	0xbe0a3775	-0.13497718
255	0xbd8d3831	-0.06895483

conv2Dblock.10.module.bias f4 [64]
0	0xbbc95efb	-0.0061453558
1	0x3be080b3	0.0068512796
2	0x3b188913	0.0023275062
3	0x3b24b5bd	0.0025132739
4	0x3c1538a3	0.0091077415
5	0xbbc3cc74	-0.0059753004
6	0x3c05be39	0.008163028
7	0xbb8a22f9	-0.004215595
8	0x3be367aa	0.006939848
9	0x3b2d1b54	0.0026413994
10	0xbac7e08e	-0.0015249418
11	0xbac1cbc8	-0.0014785463
12	0xbbd5e861	-0.006527946
13	0xbb619ac1	-0.0034424516
14	0xb96d8215	-0.0002265054
15	0x3b8ac66d	0.00423508
16	0x3be59775	0.0070065805
17	0xbb855a8f	-0.0040696333
18	0x3b94e1a2	0.004543499
19	0x3a1d6d70	0.0006005382
20	0x3b14036b	0.0022585045
21	0x3b99eae7	0.004697192
22	0x3c02721c	0.007961776
23	0x3c062f28	0.008189954
24	0x3b26640a	0.0025389218
25	0x3aec15ea	0.0018011902
26	0x3b92161f	0.0044582034
27	0xbb98a8e2	-0.0046588043
28	0x3c26edc9	0.010188528
29	0xbb466a8b	-0.0030275907
30	0xbbebe557	-0.0071989703
31	0xbbb1a1d1	-0.0054209013
32	0x3c0d16ca	0.00861139
33	0xbc084719	-0.008317732
34	0x393ed18c	0.00018197874
35	0x3c26bf77	0.010177485
36	0x3ad0bca3	0.0015925359
37	0x3c2520fb	0.010078664
38	0x3c15b70a	0.009137878
39	0x3c11bd5f	0.008895247
40	0xbbebbcbc	-0.0071941298
41	0xbc21f29d	-0.009884504
42	0x3c04f4e6	0.008115029
43	0x3a846aa3	0.0010102581
44	0x3c233075	0.0099602835
45	0xbbc92627	-0.0061385813
46	0xbc03eac7	-0.008051581
47	0xbbaad053	-0.0052128225
48	0x3bd0f705	0.0063771033
49	0xbb86b452	-0.0041108513
50	0x3bdb4823	0.006691949
51	0x3c03ada2	0.008037003
52	0x3b9e5750	0.004832186
53	0x3b47416b	0.0030403982
54	0x3bb861f6	0.005626912
55	0xba244046	-0.0006265681
56	0xbbeffce9	-0.0073238504
57	0xbc0c19e1	-0.008551092
58	0x3a07d634	0.000518176
59	0x3bcdefc9	0.006284688
60	0xbb09006b	-0.002090479
61	0xbb873c1c	-0.0041270386
62	0x3b9d3f87	0.004798833
63	0x3c083eab	0.008315722

conv2Dblock.11.module.weight f4 [64]
0	0x3eea8a15	0.45808473
1	0x3f1733d0	0.59063435
2	0x3eaefbd0	0.34176493
3	0x3edb9d49	0.42893437
4	0x3ea9d7c9	0.33172444
5	0x3edf6df4	0.43638575
6	0x3ed9390c	0.42426336
7	0x3f32ba87	0.6981587
8	0x3ed1bddd	0.40965167
9	0x3ecf49de	0.40486044
10	0x3e9dcf77	0.30822346
11	0x3ef2659c	0.47343147
12	0x3efe6ebb	0.49693856
13	0x3f09096b	0.53529996
14	0x3eebf581	0.46085742
15	0x3f02970a	0.5101172
16	0x3ef47e29	0.47752503
17	0x3f1100dc	0.56641936
18	0x3f25128f	0.64481443
19	0x3ee3b4db	0.4447392
20	0x3ee4b5ec	0.44670045
21	0x3ee22513	0.4416891
22	0x3f263700	0.64927673
23	0x3eba4a4f	0.36384818
24	0x3ebe8d99	0.37217405
25	0x3f1d21c3	0.6137964
26	0x3ed74e15	0.4205176
27	0x3f21924e	0.6311387
28	0x3ed2eb67	0.41195223
29	0x3f0cab4d	0.54948884
30	0x3e798647	0.24367629
31	0x3f170d23	0.5900442
32	0x3f053866	0.5203918
33	0x3f141b3d	0.5785406
34	0x3f1aebd3	0.6051609
35	0x3f016998	0.5055175
36	0x3ee692e5	0.45033947
37	0x3e95283d	0.29132262
38	0x3f1bd9f9	0.60879475
39	0x3ee95a5b	0.45576748
40	0x3f1144ed	0.567458
41	0x3f06ce6f	0.5265874
42	0x3ed00855	0.40631357
43	0x3ee47249	0.44618443
44	0x3f1879fd	0.5956114
45	0x3f0bf1e2	0.5466596
46	0x3f1bb3e6	0.6082138
47	0x3eaf2851	0.34210446
48	0x3edaa194	0.427014
49	0x3f0ce368	0.55034494
50	0x3edf05e2	0.43559176
51	0x3efb08e4	0.4903022
52	0x3f02aa76	0.5104135
53	0x3e9c2f21	0.30504707
54	0x3ea804ba	0.32816106
55	0x3ed6f040	0.4198017
56	0x3e8b6c3e	0.2723102
57	0x3eee1fae	0.46508545
58	0x3f1a6e71	0.6032477
59	0x3ec97749	0.3934882
60	0x3eb8302f	0.3597426
61	0x3f1582d9	0.5840278
62	0x3ee546c8	0.44780564
63	0x3eaaf475	0.3338963

conv2Dblock.11.module.bias f4 [64]
0	0xbecbd4d9	-0.39810827
1	0xbf27fca6	-0.65619886
2	0xbefc15ba	-0.49235326
3	0xbeefe510	-0.46854448
4	0xbf03e4c4	-0.51520944
5	0xbeefad55	-0.4681193
6	0xbed86e0d	-0.42271462
7	0xbf315cc6	-0.69282186
8	0xbed2e05d	-0.411868
9	0xbf1228cc	-0.570935
10	0xbecb7af6	-0.3974225
11	0xbefc072e	-0.49224228
12	0xbf0efd19	-0.55854946
13	0xbf042548	-0.51619387
14	0xbf00a3b9	-0.5024982
15	0xbf09138b	-0.53545445
16	0xbefe3797	-0.49651787
17	0xbf10e038	-0.5659213
18	0xbf28716d	-0.65798074
19	0xbf14dae8	-0.58146524
20	0xbf20c32a	-0.62797797
21	0xbf0cfc92	-0.5507289
22	0xbf0ef8cd	-0.5584839
23	0xbec2e62c	-0.38066232
24	0xbed099ee	-0.4074244
25	0xbf0285e2	-0.5098554
26	0xbefe47b9	-0.49664095
27	0xbf10a14d	-0.56496125
28	0xbed38d6d	-0.41318837
29	0xbf1d3782	-0.61412823
30	0xbedb5aa6	-0.42842597
31	0xbf0a1a54	-0.53946424
32	0xbee99394	-0.45620406
33	0xbefec48f	-0.49759337
34	0xbf1c5377	-0.6106486
35	0xbe987e71	-0.29783967
36	0xbf0adc41	-0.5424233
37	0xbf08cbc5	-0.5343593
38	0xbf1da593	-0.6158077
39	0xbf31b0cf	-0.69410414
40	0xbf00ecec	-0.50361514
41	0xbee9c423	-0.45657453
42	0xbeff7363	-0.4989272
43	0xbf11951d	-0.56868154
44	0xbf23c3c0	-0.63970566
45	0xbf03036e	-0.5117711
46	0xbee6241d	-0.44949427
47	0xbed48e21	-0.41514686
48	0xbef41748	-0.47674012
49	0xbf1285f0	-0.5723562
50	0xbf14facf	-0.58195204
51	0xbf068101	-0.52540594
52	0xbf02b6da	-0.5106026
53	0xbeceec92	-0.40414864
54	0xbf18c27e	-0.5967177
55	0xbef34abb	-0.47517952
56	0xbeee0c9b	-0.46493992
57	0xbeff83c0	-0.49905205
58	0xbf1fbb92	-0.62395585
59	0xbee99052	-0.4561792
60	0xbed10f84	-0.4083215
61	0xbefd4ee5	-0.49474254
62	0xbedf5197	-0.43616936
63	0xbee3ccf4	-0.44492304

conv2Dblock.11.module.running_mean f4 [64]
0	0xbf02b833	-0.51062316
1	0xbf8070d1	-1.0034429
2	0xbed31e6c	-0.41234148
3	0xbf731bd7	-0.94964355
4	0xbf459e83	-0.77194995
5	0xbf5c614d	-0.8608597
6	0xbf5b7433	-0.8572418
7	0xbff19256	-1.8872783
8	0xbf390d6c	-0.72286105
9	0xbf352673	-0.70761794
10	0xbddf1ef4	-0.10894576
11	0xbfa85444	-1.3150716
12	0xbf8d98ac	-1.1062217
13	0xbf7fae3a	-0.99875224
14	0xbf95b2c8	-1.1695185
15	0xbf80cb42	-1.0062029
16	0xbf240dc2	-0.6408349
17	0xbf6e8e44	-0.9318583
18	0xbf95937d	-1.1685635
19	0xbf8d1e28	-1.1024828
20	0xbf8dc2a9	-1.107503
21	0xbf9e23d5	-1.2354685
22	0xbfb1f6d9	-1.3903457
23	0xbf507922	-0.81434834
24	0xbf13c2bc	-0.57719016
25	0xbf724e5b	-0.9465081
26	0xbf6b46d7	-0.9190497
27	0xbfb3ffd0	-1.4062443
28	0xbf49cf37	-0.7883181
29	0xbf5f248c	-0.8716514
30	0xbeb5984b	-0.35467753
31	0xbfc5f169	-1.5464298
32	0xbf5907ae	-0.84777343
33	0xbf6551f0	-0.8957815
34	0xbfab541a	-1.3385041
35	0xbf8189b1	-1.0120145
36	0xbf8152fd	-1.0103451
37	0xbdadacf5	-0.084802546
38	0xbfa21c25	-1.2664839
39	0xbf72b6e1	-0.948103
40	0xbfa49ff4	-1.2861314
41	0xbf39ffdb	-0.7265603
42	0xbf840ace	-1.0315797
43	0xbfaab0fe	-1.3335264
44	0xbfb43360	-1.4078178
45	0xbfb04c95	-1.3773371
46	0xbfbfb628	-1.4977465
47	0xbf6539f8	-0.8954158
48	0xbf62bf78	-0.8857341
49	0xbf80b618	-1.0055571
50	0xbf9776fb	-1.1833185
51	0xbf9d5d90	-1.2294178
52	0xbf9c4cf7	-1.2210988
53	0x3e0f777b	0.14010422
54	0xbe59057d	-0.211935
55	0xbf195f0d	-0.5991066
56	0xbefd6cf5	-0.4949719
57	0xbf27e7ee	-0.6558827
58	0xbfa5e021	-1.2959024
59	0xbfa13092	-1.2592947
60	0xbf44da01	-0.7689515
61	0xbfacf2eb	-1.3511633
62	0xbf38dd15	-0.72212344
63	0xbf84f975	-1.0388628

conv2Dblock.11.module.running_var f4 [64]
0	0x3f29bd38	0.6630435
1	0x3f897f15	1.0741907
2	0x3f0f9186	0.56081426
3	0x3f438853	0.7637989
4	0x3f05a712	0.52208054
5	0x3f4cbbea	0.79974234
6	0x3f52c425	0.8233054
7	0x3fb43046	1.4077232
8	0x3f47eaf7	0.780929
9	0x3f1a7156	0.60329187
10	0x3f0f58b9	0.55994755
11	0x3f822e79	1.0170432
12	0x3f92f91e	1.1482275
13	0x3f56c217	0.8388991
14	0x3f9331ec	1.149961
15	0x3f84a751	1.0363561
16	0x3f5886a7	0.84580463
17	0x3f766b4e	0.96257484
18	0x3fab81f1	1.339903
19	0x3f84897c	1.0354457
20	0x3f334d05	0.700394
21	0x3f788716	0.97081125
22	0x3fa007c1	1.2502366
23	0x3f0b6521	0.54451185
24	0x3f31247f	0.69196314
25	0x3f855846	1.0417564
26	0x3f36c74e	0.71397865
27	0x3fa3160a	1.2741101
28	0x3f8a41b2	1.0801299
29	0x3f6fe85f	0.93713945
30	0x3efd22e8	0.49440694
31	0x3f900f04	1.1254582
32	0x3f7b07b2	0.9805862
33	0x3f8d9b85	1.1063086
34	0x3f97f086	1.1870277
35	0x3f4fbb70	0.8114538
36	0x3f60f3ee	0.8787221
37	0x3ed4966c	0.41521013
38	0x3fb8eaba	1.4446633
39	0x3f28c76f	0.6592931
40	0x3f83da9e	1.0301092
41	0x3f42e979	0.761375
42	0x3f6b1852	0.91833985
43	0x3f606462	0.8765317
44	0x3f9dd4c0	1.2330551
45	0x3f8a2eda	1.0795548
46	0x3f700323	0.93754786
47	0x3f4f5d40	0.81001663
48	0x3f3d5d24	0.73970246
49	0x3f9c8ec0	1.2231064
50	0x3f7bf18c	0.98415446
51	0x3f774b25	0.96599036
52	0x3f8fd520	1.1236916
53	0x3ede143c	0.43374813
54	0x3f3dd1ae	0.7414807
55	0x3f3bec6d	0.7340763
56	0x3ecb81f0	0.39747572
57	0x3f61f506	0.882645
58	0x3fa79b40	1.3094254
59	0x3f4c7a85	0.7987445
60	0x3f1bba6c	0.6083133
61	0x3f63f69a	0.8904816
62	0x3f578b24	0.84196687
63	0x3f3407a0	0.70324135

conv2Dblock.15.module.weight f4 [128, 64, 3, 3]
0	0xbd22fbdd	-0.039790977
1	0xbb98f90d	-0.004668361
2	0xbcfd1170	-0.030892104
3	0x3c89f943	0.01684249
4	0xbd197e71	-0.0374741
5	0xbd7e3dd1	-0.06207067
6	0x3d2c9d69	0.042142306
7	0xbd3a70c2	-0.04551769
8	0xbd1a84d0	-0.037724316
9	0x3ceaaf4e	0.028648045
10	0x3a2b17dd	0.0006526688
11	0xbd2a7d47	-0.04162338
12	0xbc5bf6d0	-0.013425544
13	0x3dd4c0c6	0.10388331
14	0x3db3bc62	0.087761655
15	0x3c404e2f	0.01173739
16	0xbd0e1dbd	-0.03469633
17	0xbd01d825	-0.031700272
18	0x3d893ccc	0.06701049
19	0xbd13eb52	-0.03611309
20	0x3d0925af	0.033483204
21	0x3d49cad7	0.04926571
22	0xbd12fcbb	-0.035885554
23	0xbc36cce9	-0.011157253
24	0xbc565499	-0.013081693
25	0xbdd1a651	-0.102368005
26	0xbda81ccc	-0.082086176
27	0xbd58aaed	-0.052897383
28	0xbcc9fdfa	-0.024657238
29	0xbb808e39	-0.0039232043
30	0x39b562cb	0.00034596617
31	0xbd96baa6	-0.07359819
32	0xbdd0842f	-0.10181462
33	0x3c7f1356	0.015568575
34	0x3d1bcbdc	0.038036212
35	0x3d6c3d93	0.05767591
36	0xbd0bc85d	-0.03412663
37	0x3cd73bdc	0.02627366
38	0xba51b96e	-0.00080003485
39	0x3d9c9daa	0.076472595
40	0xbbb5c544	-0.0055471975
41	0xbdc8a862	-0.097977415
42	0x3d34bbe0	0.044124484
43	0x3c7af56c	0.015317302
44	0x3d6b716c	0.057481214
45	0xbbd0696c	-0.0063602235
46	0xbcdea491	-0.02717808
47	0x3c18cf05	0.009326701
48	0xbc2a8b4a	-0.010409186
49	0x3bd6ffa5	0.006561237
50	0x3db5c183	0.088748
51	0x3dc33f53	0.095335625
52	0xbd027f80	-0.031859875
53	0x3d64c969	0.055856142
54	0x3bbb3a70	0.0057137534
55	0x3d941cda	0.072320655
56	0xbcd18079	-0.025573956
57	0x3ce90f3f	0.028449653
58	0x3385b80d	6.226774e-08
59	0xbd83a332	-0.064276114
60	0xbd9b3065	-0.0757759
61	0x3c7da6eb	0.015481691
62	0xbb14db1b	-0.0022713605
63	0xbd76057b	-0.06006382
64	0xbd42a0c7	-0.04751661
65	0xbcc53a24	-0.024075575
66	0x3d4d80a9	0.050171528
67	0xbcfd9f34	-0.030959703
68	0xbd3f6206	-0.04672434
69	0x3d618892	0.055061884
70	0x3c7ccd7f	0.015429853
71	0x3d8aa8e1	0.06770492
72	0xbcd4f64c	-0.02599635
73	0xbd2da764	-0.042395964
74	0xbc313a07	-0.010817057
75	0x3d151976	0.036401235
76	0x3bc1c1b5	0.0059129843
77	0xbcdf03ec	-0.02722355
78	0x3c1faa2c	0.009745162
79	0x3c96856e	0.018374171
80	0xbce59f35	-0.028030017
81	0x3e12e60a	0.14345565
82	0xbd491492	-0.049091883
83	0x3b5d179d	0.0033735998
84	0xbc00ad51	-0.007853822
85	0xbdbf501c	-0.093414515
86	0xbd03923e	-0.03212189
87	0xbd1695b6	-0.03676387
88	0xbd77b742	-0.060477503
89	0x3c16b204	0.009197716
90	0x3d89f0cf	0.06735384
91	0xbd0d4a71	-0.03449482
92	0xbc530379	-0.012879246
93	0x3c9c2cf4	0.019064404
94	0xbd8ba432	-0.06818427
95	0xbc57e907	-0.013178117
96	0x3cf4f36f	0.029901234
97	0xbd7bac7b	-0.061443787
98	0x3d2fb8aa	0.04290072
99	0xbd8f28ff	-0.06990241
100	0x3bfe5f23	0.007762806
101	0xbd005a54	-0.031336144
102	0x3ce157b0	0.027507633
103	0xbd2177b2	-0.03942079
104	0xbc59b4dc	-0.013287749
105	0x3cee1096	0.029060643
106	0xbd864442	-0.06555988
107	0x3d8378ab	0.064195
108	0xbd7e23e2	-0.06204594
109	0xbd03de16	-0.03219422
110	0xbca4fec0	-0.020141006
111	0xbd11fbc9	-0.03564051
112	0x3d2ce4be	0.042210333
113	0xbca9ec36	-0.020742517
114	0x3c837455	0.016046682
115	0x3c3998dd	0.011327949
116	0xbd7a86cc	-0.06116371
117	0x39b671e5	0.00034798603
118	0xbd276528	-0.040867954
119	0x3c1eb761	0.009687276
120	0xbdde81a6	-0.10864572
121	0x3ce97d52	0.02850214
122	0x3dbb0bfe	0.09133147
123	0x3d1dd28a	0.038530864
124	0x3d9bdc45	0.076103725
125	0x3cd26021	0.025680603
126	0xbd095d6f	-0.03353637
127	0xbd3e4a14	-0.046457365
128	0x3c9d2743	0.01918376
129	0x3d680690	0.056646883
130	0xbd9cf1ad	-0.076632835
131	0xbce73a82	-0.02822614
132	0x3b362d34	0.002779794
133	0xbb816601	-0.0039489274
134	0xbd9c2510	-0.076242566
135	0x3cd713ed	0.026254619
136	0xbcce9f90	-0.02522257
137	0xbc40a806	-0.01175881
138	0x3d39142a	0.045185246
139	0x3c9f2e1e	0.01943117
140	0xbcacdbbb	-0.02110087
141	0x3db248a3	0.087052606
142	0xbd4f7066	-0.0506443
143	0x3d8b2876	0.06794827
144	0xbdd379bf	-0.103259556
145	0xbca09e85	-0.019606838
146	0xbc8e6830	-0.017383665
147	0xbd15a540	-0.036534548
148	0xbcc11d5b	-0.023573568
149	0xbdcb5f56	-0.09930293
150	0x3d588104	0.052857414
151	0x3c35285a	0.011056984
152	0x3ced05f6	0.028933506
153	0xbd02939a	-0.031879045
154	0xbcf0fc2f	-0.029417126
155	0xbd11474b	-0.03546838
156	0xbdab298a	-0.08357532
157	0xbdf96bc5	-0.121787585
158	0xbd98b0ab	-0.07455572
159	0x3c0ab502	0.008466007
160	0xbd018862	-0.031624205
161	0x3d79242f	0.060825523
162	0xbd01e74b	-0.03171472
163	0xbd2b41d3	-0.04181082
164	0xbb8f9ef5	-0.004382963
165	0xbdde2c08	-0.10848242
166	0xbe0b5b98	-0.13609159
167	0xbc480f45	-0.012210672
168	0xbd1fb0e8	-0.03898707
169	0xbd85e84e	-0.06538449
170	0xbcbf5965	-0.023358056
171	0xbd447d6c	-0.047971174
172	0xbc2e8c55	-0.010653575
173	0x3cd2d136	0.025734525
174	0x3c138a60	0.009005159
175	0xbdd052f9	-0.10172076
176	0xbd823897	-0.0635845
177	0x3d1a4eb4	0.037672713
178	0x3c3e0ca6	0.011599695
179	0x3ced44ad	0.028963411
180	0x3c0fafc8	0.008769937
181	0xb95f393a	-0.00021288256
182	0x3d1b7342	0.037951715
183	0xbba94147	-0.0051652524
184	0xbd0be4e0	-0.03415382
185	0xbdc5a36a	-0.096503094
186	0x3d0a3e57	0.03375086
187	0x3d953024	0.07284573
188	0x3c880acb	0.016606709
189	0x3b312a98	0.0027033444
190	0xbc6ac6a4	-0.014329586
191	0x3b9246b0	0.004463993
192	0xbd670ec2	-0.05641056
193	0x3b7e0ad0	0.003876377
194	0xbdcab4ba	-0.09897752
195	0x3d8d74a8	0.06907016
196	0x3d35ea33	0.044412803
197	0x3c130f31	0.00897579
198	0xbbb178fd	-0.0054160343
199	0xbcc6592c	-0.024212442
200	0xbc01ab7e	-0.007914422
201	0x3d981a77	0.07426923
202	0xbcca3610	-0.024683982
203	0xbce53a4d	-0.027981902
204	0x3d39d03b	0.0453646
205	0xbd931d92	-0.071833745
206	0xbd35dc31	-0.044399444
207	0xbc490023	-0.012268099
208	0xbd71ac91	-0.059002463
209	0xbce63798	-0.028102681
210	0x3d663c75	0.05621
211	0x3d76cee2	0.060255893
212	0x3ac8a6d5	0.0015308509
213	0xbd4bc265	-0.049745936
214	0xbdb6a348	-0.08917862
215	0xbd4a450c	-0.049382254
216	0xbc545716	-0.012960216
217	0x3d138f9b	0.036025625
218	0x3b9fea61	0.004880235
219	0x3d88fae8	0.066884816
220	0xbd634ec9	-0.055495057
221	0xbd5abced	-0.05340283
222	0x3c4fd1bf	0.012684285
223	0xbc1d2bba	-0.009592945
224	0xbd1acf70	-0.037795484
225	0xbd9d48e3	-0.07679918
226	0xbc8e37d1	-0.0173606
227	0x3d25ba9d	0.04046117
228	0xbe104b93	-0.1409133
229	0xbe072340	-0.1319704
230	0xbc1b964e	-0.009496285
231	0x3d46d82c	0.048546
232	0xbdc1c100	-0.0946064
233	0xbd32a041	-0.04360986
234	0xbd62378b	-0.05522875
235	0x3c240ee0	0.010013312
236	0x3c45e48d	0.0120784165
237	0xbc63d851	-0.013906554
238	0x3d8e09f6	0.06935494
239	0xbd177fa2	-0.036986955
240	0xbd14ec3b	-0.0363581
241	0x3c38f010	0.011287704
242	0xbdc8547a	-0.097817376
243	0xbdac8d02	-0.084253326
244	0xbd73f8c2	-0.059563406
245	0xbd275884	-0.0408559
246	0xbd38c449	-0.045109067
247	0xbd835258	-0.0641219
248	0xbd0fff72	-0.03515572
249	0x3ce177bf	0.02752292
250	0x3ad4d795	0.0016238565
251	0x3dfb0348	0.12256485
252	0xbbf29993	-0.0074035614
253	0xbd0d34bb	-0.034474116
254	0xbbde3e8f	-0.00678236
255	0x3d483e0d	0.0488873

conv2Dblock.15.module.bias f4 [128]
0	0xbb2b7024	-0.002615937
1	0x3a451cd9	0.0007519252
2	0x3b7ec66d	0.0038875595
3	0xb8e14e2f	-0.00010743399
4	0xbab70a03	-0.0013964776
5	0xbb5bde72	-0.0033549336
6	0xbb76409f	-0.0037575138
7	0x3b98df8e	0.0046653217
8	0xbb7f86e1	-0.0038990306
9	0x3bb97cb2	0.005660617
10	0xbae569f0	-0.0017502885
11	0x3b97d660	0.00463371
12	0xbb4a0591	-0.0030826072
13	0xbbec4cca	-0.0072113024
14	0xbb76a766	-0.0037636398
15	0xbb7873c7	-0.0037910806
16	0x3bd780b8	0.006576624
17	0x3a75cde4	0.00093766884
18	0x3b7740f6	0.0037727929
19	0x3b1970c1	0.0023413154
20	0xbbcbc186	-0.006218138
21	0x3af8c642	0.0018979984
22	0x3bde4db7	0.0067841667
23	0xbbccc42d	-0.006248972
24	0xbbe7fb0d	-0.007079488
25	0x3b934885	0.004494729
26	0xbb3de01b	-0.0028972689
27	0x3b848901	0.0040446525
28	0xbb6c902b	-0.0036096673
29	0xbbe4737a	-0.0069717737
30	0xb8840395	-6.294918e-05
31	0x3ba41c86	0.005008283
32	0xb834eb9f	-4.3134783e-05
33	0x3bc59063	0.006029175
34	0xbb9b7e87	-0.004745308
35	0x3b1666a6	0.0022949367
36	0x3bd7534c	0.006571209
37	0xbb89c554	-0.0042044315
38	0x3ba52b37	0.005040552
39	0xb92407aa	-0.00015643114
40	0xbb343cef	-0.002750214
41	0x3b1bc695	0.0023769487
42	0xbaad8a1b	-0.0013240011
43	0x3b8c482a	0.0042810636
44	0xbb871d52	-0.0041233683
45	0xb9c879b4	-0.0003823765
46	0xbab8e12d	-0.0014105194
47	0x3b3599e3	0.0027710132
48	0x399d3a4a	0.00029988802
49	0x3a4c9c84	0.0007805305
50	0x3a6dfbce	0.00090783543
51	0x3adbd003	0.0016770366
52	0x3b9a594b	0.0047103516
53	0xbbe14b0e	-0.0068754023
54	0xba39585b	-0.0007070356
55	0x3b3f923d	0.0029231452
56	0xbb9494a5	-0.0045343214
57	0x3bb827ba	0.00561997
58	0xbb466d06	-0.0030277385
59	0xb9ac17be	-0.00032824086
60	0xbaa0474c	-0.0012228279
61	0x3b95b618	0.0045688264
62	0xba678c22	-0.0008832832
63	0xbb53a8dd	-0.0032296695
64	0x3b254de3	0.0025223426
65	0xba3438a7	-0.0006874897
66	0xbb7cb0a1	-0.0038557427
67	0x3ba24e39	0.0049531725
68	0x3ae56d21	0.0017503836
69	0xbabd9d51	-0.001446644
70	0x3b7fc019	0.0039024411
71	0x3bed6beb	0.007245531
72	0x3b2dfd42	0.0026548658
73	0x3b5f755a	0.0034097047
74	0x3be5f274	0.007017428
75	0x3bde5a91	0.0067856987
76	0x3bbae11d	0.005703105
77	0x3ab71f5d	0.0013971139
78	0x3bcad054	0.0061893854
79	0x3bd39484	0.0064569134
80	0xbbd91e0d	-0.006625897
81	0xbb6d133c	-0.0036174795
82	0xb9dd982d	-0.00042265785
83	0xbb1132f1	-0.0022155608
84	0xbb5a2967	-0.0033288838
85	0xbb6c353a	-0.0036042468
86	0x3bd6ba4d	0.0065529705
87	0xb8d6f5d9	-0.00010250108
88	0xba830f70	-0.0009999108
89	0x3a9f1ce5	0.0012139349
90	0xbbd77987	-0.0065757665
91	0x3bc6a452	0.006062069
92	0x3ba94fe4	0.0051669944
93	0x3bcf4012	0.0063247764
94	0x39854343	0.0002541785
95	0xbb93d811	-0.004511841
96	0xbb2e5d32	-0.0026605842
97	0x3aca1a33	0.0015419185
98	0xbb8c6515	-0.004284511
99	0x3b12e5cd	0.0022414804
100	0x3b78d191	0.0037966708
101	0xbb869096	-0.0041065915
102	0xb9e62041	-0.0004389305
103	0xba8760e5	-0.001032856
104	0x3ba2a0fc	0.0049630385
105	0xbadc15e9	-0.0016791198
106	0x3a8b92fb	0.0010648662
107	0x3b403f37	0.0029334554
108	0x3b09b6da	0.002101353
109	0xbbba5458	-0.005686324
110	0x3bb91715	0.0056485035
111	0x3be43de6	0.0069653867
112	0xbb864470	-0.004097514
113	0x3bb20512	0.0054327333
114	0x3b4dd377	0.003140656
115	0xb917f61a	-0.00014492162
116	0x3bc355c6	0.0059611527
117	0x3a79d2c7	0.00095300045
118	0x3b797be3	0.0038068227
119	0x3bbc99ee	0.0057556545
120	0xba7e574e	-0.00097023405
121	0xbacc6820	-0.0015594997
122	0x3be5436d	0.006996563
123	0xbb9f281a	-0.0048570754
124	0x3bad0262	0.005279825
125	0x3b7c0817	0.003845697
126	0x3b8f9369	0.0043815863
127	0x3bb85f0d	0.0056265653

conv2Dblock.16.module.weight f4 [128]
0	0x3ef00feb	0.46887144
1	0x3efd753e	0.4950351
2	0x3f05bf49	0.52245003
3	0x3ed54f28	0.41661954
4	0x3eed49d2	0.46345383
5	0x3ef649e7	0.48103258
6	0x3ef4e4e2	0.47830874
7	0x3f070e75	0.52756435
8	0x3ef1362c	0.47111642
9	0x3f011fb3	0.50438994
10	0x3ee28a45	0.44246116
11	0x3ed66fc1	0.41882136
12	0x3f00a782	0.50255597
13	0x3ef7eb79	0.4842184
14	0x3f06526c	0.52469516
15	0x3f015925	0.5052665
16	0x3ef1fe47	0.4726431
17	0x3ee95c0b	0.45578036
18	0x3f016e71	0.50559145
19	0x3f01749f	0.50568575
20	0x3f01720f	0.50564665
21	0x3efdffa0	0.4960909
22	0x3eeab8f3	0.4584423
23	0x3ee63123	0.44959363
24	0x3eeaa5c9	0.4582961
25	0x3edb5419	0.428376
26	0x3efa6f4e	0.48913044
27	0x3eea90b6	0.4581353
28	0x3f052230	0.5200529
29	0x3efc3ef2	0.49266773
30	0x3ef128de	0.47101492
31	0x3eef89f1	0.46784928
32	0x3efcc827	0.49371454
33	0x3eee2ac8	0.46517015
34	0x3f04f3e9	0.5193468
35	0x3ede4312	0.43410546
36	0x3ee91898	0.45526576
37	0x3ef641fb	0.48097214
38	0x3f0d5601	0.55209357
39	0x3ef8f72e	0.48626083
40	0x3ece4dd4	0.40293753
41	0x3eeeeaee	0.46663612
42	0x3edc9080	0.43078995
43	0x3eee272c	0.4651426
44	0x3efb7099	0.49109343
45	0x3eeb8420	0.4599924
46	0x3ed248c2	0.41071135
47	0x3ef1f1c1	0.47254756
48	0x3eff4d0a	0.49863464
49	0x3ef4f32a	0.4784177
50	0x3ef32b32	0.47493893
51	0x3eedc9b1	0.4644294
52	0x3ee94516	0.4556052
53	0x3ef43ff5	0.47705045
54	0x3efdfafd	0.4960555
55	0x3f049e79	0.5180431
56	0x3f0a1dca	0.53951705
57	0x3eed178b	0.46307024
58	0x3ef85924	0.4850551
59	0x3f0e4991	0.55581003
60	0x3ee49350	0.4464364
61	0x3ef90390	0.4863553
62	0x3ef42298	0.47682643
63	0x3f0801c4	0.53127694
64	0x3eeac2d7	0.45851776
65	0x3ee0bd10	0.43894243
66	0x3f056d49	0.5211988
67	0x3eed744a	0.46377784
68	0x3eef0537	0.46683666
69	0x3ed8f812	0.42376763
70	0x3f01f2ce	0.50761116
71	0x3efcd37c	0.493801
72	0x3f0a64c7	0.54060024
73	0x3ed8af73	0.42321357
74	0x3ee8482e	0.4536757
75	0x3f01ed51	0.5075274
76	0x3edb4727	0.42827722
77	0x3eff979a	0.4992035
78	0x3ef47bdd	0.4775075
79	0x3ef97345	0.48720756
80	0x3ef28c23	0.4737254
81	0x3f124851	0.57141596
82	0x3ef6ef6f	0.48229548
83	0x3f02ba81	0.5106583
84	0x3ec999e3	0.3937522
85	0x3eee83a2	0.46584803
86	0x3ee058d2	0.43817765
87	0x3ef0185a	0.4689358
88	0x3f10e7b7	0.5660357
89	0x3f028df8	0.5099788
90	0x3efebb58	0.49752307
91	0x3efcbefc	0.4936446
92	0x3ef74b29	0.4829953
93	0x3eea865a	0.45805627
94	0x3f028b16	0.5099348
95	0x3eeabd1f	0.45847413
96	0x3efc6430	0.49295187
97	0x3ee5e41d	0.449006
98	0x3ee95054	0.45569098
99	0x3ef2588a	0.47333175
100	0x3ede7f77	0.43456623
101	0x3f0b07ea	0.5430895
102	0x3ef20a36	0.47273415
103	0x3efdc692	0.4956556
104	0x3ee41850	0.445498
105	0x3f04f32b	0.51933545
106	0x3ef84794	0.4849211
107	0x3edffaa3	0.43745908
108	0x3ee614c8	0.4493773
109	0x3f04bbbc	0.5184896
110	0x3f0819e4	0.53164506
111	0x3ed65d63	0.41868123
112	0x3ee97df5	0.4560391
113	0x3ee467a9	0.44610336
114	0x3edc9ea6	0.4308979
115	0x3eed54a3	0.46353635
116	0x3eec856d	0.46195546
117	0x3eefac35	0.4681107
118	0x3efe12e1	0.49623778
119	0x3eff80bd	0.49902907
120	0x3ee301c1	0.44337276
121	0x3ef222a8	0.47292066
122	0x3ef468e2	0.4773627
123	0x3ee8f71c	0.4550103
124	0x3f007c43	0.5018961
125	0x3f02c0d6	0.51075494
126	0x3ee17889	0.44037274
127	0x3f0e2033	0.5551788

conv2Dblock.16.module.bias f4 [128]
0	0xbf3e9c84	-0.74457574
1	0xbf401e9a	-0.75046694
2	0xbf17a372	-0.5923377
3	0xbf2bfd1b	-0.67183083
4	0xbf57359f	-0.84066194
5	0xbf22dde0	-0.63619804
6	0xbefed09e	-0.49768537
7	0xbf3a0b2f	-0.72673315
8	0xbf42e67e	-0.76132953
9	0xbf1b5f01	-0.6069184
10	0xbefc1249	-0.492327
11	0xbf2b6b77	-0.66960853
12	0xbf6a57f7	-0.91540474
13	0xbf390a43	-0.72281283
14	0xbf3f1a7e	-0.746498
15	0xbf005891	-0.5013514
16	0xbf171270	-0.5901251
17	0xbf26e7e3	-0.6519758
18	0xbf20cee3	-0.62815684
19	0xbf0dd2d1	-0.55399805
20	0xbf159f18	-0.5844588
21	0xbf077fea	-0.52929556
22	0xbf132241	-0.5747414
23	0xbf28f1ae	-0.65993774
24	0xbf13a305	-0.57670623
25	0xbf1d3be3	-0.61419505
26	0xbf183608	-0.59457445
27	0xbf4be9ed	-0.7965382
28	0xbf2e08b1	-0.6798201
29	0xbf2d27c4	-0.676388
30	0xbf43d4d4	-0.76496625
31	0xbf2ef087	-0.68335766
32	0xbf314408	-0.6924443
33	0xbede7004	-0.43444836
34	0xbf223f10	-0.63377476
35	0xbf0b9396	-0.54522073
36	0xbf347d35	-0.7050355
37	0xbf55915e	-0.8342494
38	0xbf5a17d4	-0.8519261
39	0xbf307526	-0.68928754
40	0xbf301c6c	-0.6879337
41	0xbf2fc4bc	-0.6865957
42	0xbf0e2b55	-0.5553487
43	0xbf162745	-0.5865367
44	0xbf3468e1	-0.7047253
45	0xbf1e21c0	-0.6177025
46	0xbf2741ab	-0.65334576
47	0xbf227307	-0.6345677
48	0xbf1e98c5	-0.6195186
49	0xbf41fe6a	-0.7577883
50	0xbf3317c2	-0.69958127
51	0xbf2d7d82	-0.67769635
52	0xbf2c3863	-0.6727354
53	0xbefdaaa1	-0.49544242
54	0xbf3f82e5	-0.74809104
55	0xbf24f4a7	-0.6443581
56	0xbf297230	-0.6618986
57	0xbf23bceb	-0.6396014
58	0xbf37e513	-0.71833915
59	0xbf340df7	-0.7033381
60	0xbf2d5ec8	-0.6772275
61	0xbf16265a	-0.5865227
62	0xbf1f5e67	-0.6225342
63	0xbf1be7a3	-0.60900325
64	0xbf0802ac	-0.53129077
65	0xbf370309	-0.71489006
66	0xbf42b83a	-0.7606236
67	0xbf22d443	-0.63605136
68	0xbf1d9b55	-0.6156514
69	0xbf417e29	-0.7558313
70	0xbf0941f6	-0.53616273
71	0xbf3a7a08	-0.72842455
72	0xbf01cf11	-0.50706583
73	0xbf3d7abc	-0.740154
74	0xbef3074e	-0.4746651
75	0xbf16870a	-0.58799803
76	0xbf4c9257	-0.79910797
77	0xbf2f8fb5	-0.68578655
78	0xbf29a35b	-0.66264886
79	0xbf0984a3	-0.5371801
80	0xbf21ffc4	-0.6328089
81	0xbec0544c	-0.37564313
82	0xbf26d002	-0.65161145
83	0xbf496e7a	-0.786842
84	0xbf3bcbbf	-0.73357767
85	0xbf32dc35	-0.6986726
86	0xbf155dc4	-0.583462
87	0xbf28b650	-0.65903187
88	0xbf3a6cce	-0.7282227
89	0xbf232b9d	-0.63738424
90	0xbf2cd81d	-0.6751726
91	0xbf2ddaba	-0.67911875
92	0xbf19a773	-0.6002113
93	0xbf2b7653	-0.66977423
94	0xbf345af2	-0.7045127
95	0xbf29fdf9	-0.66403157
96	0xbf34e7c2	-0.70666134
97	0xbf1f7297	-0.62284225
98	0xbf10a04f	-0.5649461
99	0xbf0aa1cc	-0.5415313
100	0xbf18bb18	-0.5966048
101	0xbf31a4fc	-0.6939237
102	0xbf0d0796	-0.550897
103	0xbf34ea9b	-0.7067048
104	0xbee0e9c1	-0.4392834
105	0xbf1f485e	-0.622198
106	0xbf3f32b9	-0.7468677
107	0xbf1b1ac1	-0.605877
108	0xbf3d98cd	-0.7406128
109	0xbf4be01c	-0.7963884
110	0xbf42d8fc	-0.7611234
111	0xbf33e599	-0.70272213
112	0xbf277c2d	-0.6542385
113	0xbf23f9b9	-0.6405292
114	0xbf09f57d	-0.5389021
115	0xbf38a009	-0.72119194
116	0xbf26105f	-0.6486873
117	0xbf455faf	-0.77099127
118	0xbf49f71d	-0.7889269
119	0xbf325d07	-0.696732
120	0xbf175821	-0.5911885
121	0xbeb81a22	-0.35957438
122	0xbf2a777d	-0.66588575
123	0xbf1f993a	-0.6234318
124	0xbf397bc1	-0.7245446
125	0xbf358685	-0.70908386
126	0xbf2cc16c	-0.6748264
127	0xbef7d9bb	-0.48408303
